<class 'tensorflow_datasets.core.dataset_info.DatasetInfo'>
Model: "resnet50"
__________________________________________________________________________________________________
Layer (type)                    Output Shape         Param #     Connected to                     
==================================================================================================
input_1 (InputLayer)            [(None, 170, 170, 3) 0                                            
__________________________________________________________________________________________________
conv1_pad (ZeroPadding2D)       (None, 176, 176, 3)  0           input_1[0][0]                    
__________________________________________________________________________________________________
conv1 (Conv2D)                  (None, 85, 85, 64)   9472        conv1_pad[0][0]                  
__________________________________________________________________________________________________
bn_conv1 (BatchNormalization)   (None, 85, 85, 64)   256         conv1[0][0]                      
__________________________________________________________________________________________________
activation (Activation)         (None, 85, 85, 64)   0           bn_conv1[0][0]                   
__________________________________________________________________________________________________
pool1_pad (ZeroPadding2D)       (None, 87, 87, 64)   0           activation[0][0]                 
__________________________________________________________________________________________________
max_pooling2d (MaxPooling2D)    (None, 43, 43, 64)   0           pool1_pad[0][0]                  
__________________________________________________________________________________________________
res2a_branch2a (Conv2D)         (None, 43, 43, 64)   4160        max_pooling2d[0][0]              
__________________________________________________________________________________________________
bn2a_branch2a (BatchNormalizati (None, 43, 43, 64)   256         res2a_branch2a[0][0]             
__________________________________________________________________________________________________
activation_1 (Activation)       (None, 43, 43, 64)   0           bn2a_branch2a[0][0]              
__________________________________________________________________________________________________
res2a_branch2b (Conv2D)         (None, 43, 43, 64)   36928       activation_1[0][0]               
__________________________________________________________________________________________________
bn2a_branch2b (BatchNormalizati (None, 43, 43, 64)   256         res2a_branch2b[0][0]             
__________________________________________________________________________________________________
activation_2 (Activation)       (None, 43, 43, 64)   0           bn2a_branch2b[0][0]              
__________________________________________________________________________________________________
res2a_branch2c (Conv2D)         (None, 43, 43, 256)  16640       activation_2[0][0]               
__________________________________________________________________________________________________
res2a_branch1 (Conv2D)          (None, 43, 43, 256)  16640       max_pooling2d[0][0]              
__________________________________________________________________________________________________
bn2a_branch2c (BatchNormalizati (None, 43, 43, 256)  1024        res2a_branch2c[0][0]             
__________________________________________________________________________________________________
bn2a_branch1 (BatchNormalizatio (None, 43, 43, 256)  1024        res2a_branch1[0][0]              
__________________________________________________________________________________________________
add (Add)                       (None, 43, 43, 256)  0           bn2a_branch2c[0][0]              
                                                                 bn2a_branch1[0][0]               
__________________________________________________________________________________________________
activation_3 (Activation)       (None, 43, 43, 256)  0           add[0][0]                        
__________________________________________________________________________________________________
res2b_branch2a (Conv2D)         (None, 43, 43, 64)   16448       activation_3[0][0]               
__________________________________________________________________________________________________
bn2b_branch2a (BatchNormalizati (None, 43, 43, 64)   256         res2b_branch2a[0][0]             
__________________________________________________________________________________________________
activation_4 (Activation)       (None, 43, 43, 64)   0           bn2b_branch2a[0][0]              
__________________________________________________________________________________________________
res2b_branch2b (Conv2D)         (None, 43, 43, 64)   36928       activation_4[0][0]               
__________________________________________________________________________________________________
bn2b_branch2b (BatchNormalizati (None, 43, 43, 64)   256         res2b_branch2b[0][0]             
__________________________________________________________________________________________________
activation_5 (Activation)       (None, 43, 43, 64)   0           bn2b_branch2b[0][0]              
__________________________________________________________________________________________________
res2b_branch2c (Conv2D)         (None, 43, 43, 256)  16640       activation_5[0][0]               
__________________________________________________________________________________________________
bn2b_branch2c (BatchNormalizati (None, 43, 43, 256)  1024        res2b_branch2c[0][0]             
__________________________________________________________________________________________________
add_1 (Add)                     (None, 43, 43, 256)  0           bn2b_branch2c[0][0]              
                                                                 activation_3[0][0]               
__________________________________________________________________________________________________
activation_6 (Activation)       (None, 43, 43, 256)  0           add_1[0][0]                      
__________________________________________________________________________________________________
res2c_branch2a (Conv2D)         (None, 43, 43, 64)   16448       activation_6[0][0]               
__________________________________________________________________________________________________
bn2c_branch2a (BatchNormalizati (None, 43, 43, 64)   256         res2c_branch2a[0][0]             
__________________________________________________________________________________________________
activation_7 (Activation)       (None, 43, 43, 64)   0           bn2c_branch2a[0][0]              
__________________________________________________________________________________________________
res2c_branch2b (Conv2D)         (None, 43, 43, 64)   36928       activation_7[0][0]               
__________________________________________________________________________________________________
bn2c_branch2b (BatchNormalizati (None, 43, 43, 64)   256         res2c_branch2b[0][0]             
__________________________________________________________________________________________________
activation_8 (Activation)       (None, 43, 43, 64)   0           bn2c_branch2b[0][0]              
__________________________________________________________________________________________________
res2c_branch2c (Conv2D)         (None, 43, 43, 256)  16640       activation_8[0][0]               
__________________________________________________________________________________________________
bn2c_branch2c (BatchNormalizati (None, 43, 43, 256)  1024        res2c_branch2c[0][0]             
__________________________________________________________________________________________________
add_2 (Add)                     (None, 43, 43, 256)  0           bn2c_branch2c[0][0]              
                                                                 activation_6[0][0]               
__________________________________________________________________________________________________
activation_9 (Activation)       (None, 43, 43, 256)  0           add_2[0][0]                      
__________________________________________________________________________________________________
res3a_branch2a (Conv2D)         (None, 22, 22, 128)  32896       activation_9[0][0]               
__________________________________________________________________________________________________
bn3a_branch2a (BatchNormalizati (None, 22, 22, 128)  512         res3a_branch2a[0][0]             
__________________________________________________________________________________________________
activation_10 (Activation)      (None, 22, 22, 128)  0           bn3a_branch2a[0][0]              
__________________________________________________________________________________________________
res3a_branch2b (Conv2D)         (None, 22, 22, 128)  147584      activation_10[0][0]              
__________________________________________________________________________________________________
bn3a_branch2b (BatchNormalizati (None, 22, 22, 128)  512         res3a_branch2b[0][0]             
__________________________________________________________________________________________________
activation_11 (Activation)      (None, 22, 22, 128)  0           bn3a_branch2b[0][0]              
__________________________________________________________________________________________________
res3a_branch2c (Conv2D)         (None, 22, 22, 512)  66048       activation_11[0][0]              
__________________________________________________________________________________________________
res3a_branch1 (Conv2D)          (None, 22, 22, 512)  131584      activation_9[0][0]               
__________________________________________________________________________________________________
bn3a_branch2c (BatchNormalizati (None, 22, 22, 512)  2048        res3a_branch2c[0][0]             
__________________________________________________________________________________________________
bn3a_branch1 (BatchNormalizatio (None, 22, 22, 512)  2048        res3a_branch1[0][0]              
__________________________________________________________________________________________________
add_3 (Add)                     (None, 22, 22, 512)  0           bn3a_branch2c[0][0]              
                                                                 bn3a_branch1[0][0]               
__________________________________________________________________________________________________
activation_12 (Activation)      (None, 22, 22, 512)  0           add_3[0][0]                      
__________________________________________________________________________________________________
res3b_branch2a (Conv2D)         (None, 22, 22, 128)  65664       activation_12[0][0]              
__________________________________________________________________________________________________
bn3b_branch2a (BatchNormalizati (None, 22, 22, 128)  512         res3b_branch2a[0][0]             
__________________________________________________________________________________________________
activation_13 (Activation)      (None, 22, 22, 128)  0           bn3b_branch2a[0][0]              
__________________________________________________________________________________________________
res3b_branch2b (Conv2D)         (None, 22, 22, 128)  147584      activation_13[0][0]              
__________________________________________________________________________________________________
bn3b_branch2b (BatchNormalizati (None, 22, 22, 128)  512         res3b_branch2b[0][0]             
__________________________________________________________________________________________________
activation_14 (Activation)      (None, 22, 22, 128)  0           bn3b_branch2b[0][0]              
__________________________________________________________________________________________________
res3b_branch2c (Conv2D)         (None, 22, 22, 512)  66048       activation_14[0][0]              
__________________________________________________________________________________________________
bn3b_branch2c (BatchNormalizati (None, 22, 22, 512)  2048        res3b_branch2c[0][0]             
__________________________________________________________________________________________________
add_4 (Add)                     (None, 22, 22, 512)  0           bn3b_branch2c[0][0]              
                                                                 activation_12[0][0]              
__________________________________________________________________________________________________
activation_15 (Activation)      (None, 22, 22, 512)  0           add_4[0][0]                      
__________________________________________________________________________________________________
res3c_branch2a (Conv2D)         (None, 22, 22, 128)  65664       activation_15[0][0]              
__________________________________________________________________________________________________
bn3c_branch2a (BatchNormalizati (None, 22, 22, 128)  512         res3c_branch2a[0][0]             
__________________________________________________________________________________________________
activation_16 (Activation)      (None, 22, 22, 128)  0           bn3c_branch2a[0][0]              
__________________________________________________________________________________________________
res3c_branch2b (Conv2D)         (None, 22, 22, 128)  147584      activation_16[0][0]              
__________________________________________________________________________________________________
bn3c_branch2b (BatchNormalizati (None, 22, 22, 128)  512         res3c_branch2b[0][0]             
__________________________________________________________________________________________________
activation_17 (Activation)      (None, 22, 22, 128)  0           bn3c_branch2b[0][0]              
__________________________________________________________________________________________________
res3c_branch2c (Conv2D)         (None, 22, 22, 512)  66048       activation_17[0][0]              
__________________________________________________________________________________________________
bn3c_branch2c (BatchNormalizati (None, 22, 22, 512)  2048        res3c_branch2c[0][0]             
__________________________________________________________________________________________________
add_5 (Add)                     (None, 22, 22, 512)  0           bn3c_branch2c[0][0]              
                                                                 activation_15[0][0]              
__________________________________________________________________________________________________
activation_18 (Activation)      (None, 22, 22, 512)  0           add_5[0][0]                      
__________________________________________________________________________________________________
res3d_branch2a (Conv2D)         (None, 22, 22, 128)  65664       activation_18[0][0]              
__________________________________________________________________________________________________
bn3d_branch2a (BatchNormalizati (None, 22, 22, 128)  512         res3d_branch2a[0][0]             
__________________________________________________________________________________________________
activation_19 (Activation)      (None, 22, 22, 128)  0           bn3d_branch2a[0][0]              
__________________________________________________________________________________________________
res3d_branch2b (Conv2D)         (None, 22, 22, 128)  147584      activation_19[0][0]              
__________________________________________________________________________________________________
bn3d_branch2b (BatchNormalizati (None, 22, 22, 128)  512         res3d_branch2b[0][0]             
__________________________________________________________________________________________________
activation_20 (Activation)      (None, 22, 22, 128)  0           bn3d_branch2b[0][0]              
__________________________________________________________________________________________________
res3d_branch2c (Conv2D)         (None, 22, 22, 512)  66048       activation_20[0][0]              
__________________________________________________________________________________________________
bn3d_branch2c (BatchNormalizati (None, 22, 22, 512)  2048        res3d_branch2c[0][0]             
__________________________________________________________________________________________________
add_6 (Add)                     (None, 22, 22, 512)  0           bn3d_branch2c[0][0]              
                                                                 activation_18[0][0]              
__________________________________________________________________________________________________
activation_21 (Activation)      (None, 22, 22, 512)  0           add_6[0][0]                      
__________________________________________________________________________________________________
res4a_branch2a (Conv2D)         (None, 11, 11, 256)  131328      activation_21[0][0]              
__________________________________________________________________________________________________
bn4a_branch2a (BatchNormalizati (None, 11, 11, 256)  1024        res4a_branch2a[0][0]             
__________________________________________________________________________________________________
activation_22 (Activation)      (None, 11, 11, 256)  0           bn4a_branch2a[0][0]              
__________________________________________________________________________________________________
res4a_branch2b (Conv2D)         (None, 11, 11, 256)  590080      activation_22[0][0]              
__________________________________________________________________________________________________
bn4a_branch2b (BatchNormalizati (None, 11, 11, 256)  1024        res4a_branch2b[0][0]             
__________________________________________________________________________________________________
activation_23 (Activation)      (None, 11, 11, 256)  0           bn4a_branch2b[0][0]              
__________________________________________________________________________________________________
res4a_branch2c (Conv2D)         (None, 11, 11, 1024) 263168      activation_23[0][0]              
__________________________________________________________________________________________________
res4a_branch1 (Conv2D)          (None, 11, 11, 1024) 525312      activation_21[0][0]              
__________________________________________________________________________________________________
bn4a_branch2c (BatchNormalizati (None, 11, 11, 1024) 4096        res4a_branch2c[0][0]             
__________________________________________________________________________________________________
bn4a_branch1 (BatchNormalizatio (None, 11, 11, 1024) 4096        res4a_branch1[0][0]              
__________________________________________________________________________________________________
add_7 (Add)                     (None, 11, 11, 1024) 0           bn4a_branch2c[0][0]              
                                                                 bn4a_branch1[0][0]               
__________________________________________________________________________________________________
activation_24 (Activation)      (None, 11, 11, 1024) 0           add_7[0][0]                      
__________________________________________________________________________________________________
res4b_branch2a (Conv2D)         (None, 11, 11, 256)  262400      activation_24[0][0]              
__________________________________________________________________________________________________
bn4b_branch2a (BatchNormalizati (None, 11, 11, 256)  1024        res4b_branch2a[0][0]             
__________________________________________________________________________________________________
activation_25 (Activation)      (None, 11, 11, 256)  0           bn4b_branch2a[0][0]              
__________________________________________________________________________________________________
res4b_branch2b (Conv2D)         (None, 11, 11, 256)  590080      activation_25[0][0]              
__________________________________________________________________________________________________
bn4b_branch2b (BatchNormalizati (None, 11, 11, 256)  1024        res4b_branch2b[0][0]             
__________________________________________________________________________________________________
activation_26 (Activation)      (None, 11, 11, 256)  0           bn4b_branch2b[0][0]              
__________________________________________________________________________________________________
res4b_branch2c (Conv2D)         (None, 11, 11, 1024) 263168      activation_26[0][0]              
__________________________________________________________________________________________________
bn4b_branch2c (BatchNormalizati (None, 11, 11, 1024) 4096        res4b_branch2c[0][0]             
__________________________________________________________________________________________________
add_8 (Add)                     (None, 11, 11, 1024) 0           bn4b_branch2c[0][0]              
                                                                 activation_24[0][0]              
__________________________________________________________________________________________________
activation_27 (Activation)      (None, 11, 11, 1024) 0           add_8[0][0]                      
__________________________________________________________________________________________________
res4c_branch2a (Conv2D)         (None, 11, 11, 256)  262400      activation_27[0][0]              
__________________________________________________________________________________________________
bn4c_branch2a (BatchNormalizati (None, 11, 11, 256)  1024        res4c_branch2a[0][0]             
__________________________________________________________________________________________________
activation_28 (Activation)      (None, 11, 11, 256)  0           bn4c_branch2a[0][0]              
__________________________________________________________________________________________________
res4c_branch2b (Conv2D)         (None, 11, 11, 256)  590080      activation_28[0][0]              
__________________________________________________________________________________________________
bn4c_branch2b (BatchNormalizati (None, 11, 11, 256)  1024        res4c_branch2b[0][0]             
__________________________________________________________________________________________________
activation_29 (Activation)      (None, 11, 11, 256)  0           bn4c_branch2b[0][0]              
__________________________________________________________________________________________________
res4c_branch2c (Conv2D)         (None, 11, 11, 1024) 263168      activation_29[0][0]              
__________________________________________________________________________________________________
bn4c_branch2c (BatchNormalizati (None, 11, 11, 1024) 4096        res4c_branch2c[0][0]             
__________________________________________________________________________________________________
add_9 (Add)                     (None, 11, 11, 1024) 0           bn4c_branch2c[0][0]              
                                                                 activation_27[0][0]              
__________________________________________________________________________________________________
activation_30 (Activation)      (None, 11, 11, 1024) 0           add_9[0][0]                      
__________________________________________________________________________________________________
res4d_branch2a (Conv2D)         (None, 11, 11, 256)  262400      activation_30[0][0]              
__________________________________________________________________________________________________
bn4d_branch2a (BatchNormalizati (None, 11, 11, 256)  1024        res4d_branch2a[0][0]             
__________________________________________________________________________________________________
activation_31 (Activation)      (None, 11, 11, 256)  0           bn4d_branch2a[0][0]              
__________________________________________________________________________________________________
res4d_branch2b (Conv2D)         (None, 11, 11, 256)  590080      activation_31[0][0]              
__________________________________________________________________________________________________
bn4d_branch2b (BatchNormalizati (None, 11, 11, 256)  1024        res4d_branch2b[0][0]             
__________________________________________________________________________________________________
activation_32 (Activation)      (None, 11, 11, 256)  0           bn4d_branch2b[0][0]              
__________________________________________________________________________________________________
res4d_branch2c (Conv2D)         (None, 11, 11, 1024) 263168      activation_32[0][0]              
__________________________________________________________________________________________________
bn4d_branch2c (BatchNormalizati (None, 11, 11, 1024) 4096        res4d_branch2c[0][0]             
__________________________________________________________________________________________________
add_10 (Add)                    (None, 11, 11, 1024) 0           bn4d_branch2c[0][0]              
                                                                 activation_30[0][0]              
__________________________________________________________________________________________________
activation_33 (Activation)      (None, 11, 11, 1024) 0           add_10[0][0]                     
__________________________________________________________________________________________________
res4e_branch2a (Conv2D)         (None, 11, 11, 256)  262400      activation_33[0][0]              
__________________________________________________________________________________________________
bn4e_branch2a (BatchNormalizati (None, 11, 11, 256)  1024        res4e_branch2a[0][0]             
__________________________________________________________________________________________________
activation_34 (Activation)      (None, 11, 11, 256)  0           bn4e_branch2a[0][0]              
__________________________________________________________________________________________________
res4e_branch2b (Conv2D)         (None, 11, 11, 256)  590080      activation_34[0][0]              
__________________________________________________________________________________________________
bn4e_branch2b (BatchNormalizati (None, 11, 11, 256)  1024        res4e_branch2b[0][0]             
__________________________________________________________________________________________________
activation_35 (Activation)      (None, 11, 11, 256)  0           bn4e_branch2b[0][0]              
__________________________________________________________________________________________________
res4e_branch2c (Conv2D)         (None, 11, 11, 1024) 263168      activation_35[0][0]              
__________________________________________________________________________________________________
bn4e_branch2c (BatchNormalizati (None, 11, 11, 1024) 4096        res4e_branch2c[0][0]             
__________________________________________________________________________________________________
add_11 (Add)                    (None, 11, 11, 1024) 0           bn4e_branch2c[0][0]              
                                                                 activation_33[0][0]              
__________________________________________________________________________________________________
activation_36 (Activation)      (None, 11, 11, 1024) 0           add_11[0][0]                     
__________________________________________________________________________________________________
res4f_branch2a (Conv2D)         (None, 11, 11, 256)  262400      activation_36[0][0]              
__________________________________________________________________________________________________
bn4f_branch2a (BatchNormalizati (None, 11, 11, 256)  1024        res4f_branch2a[0][0]             
__________________________________________________________________________________________________
activation_37 (Activation)      (None, 11, 11, 256)  0           bn4f_branch2a[0][0]              
__________________________________________________________________________________________________
res4f_branch2b (Conv2D)         (None, 11, 11, 256)  590080      activation_37[0][0]              
__________________________________________________________________________________________________
bn4f_branch2b (BatchNormalizati (None, 11, 11, 256)  1024        res4f_branch2b[0][0]             
__________________________________________________________________________________________________
activation_38 (Activation)      (None, 11, 11, 256)  0           bn4f_branch2b[0][0]              
__________________________________________________________________________________________________
res4f_branch2c (Conv2D)         (None, 11, 11, 1024) 263168      activation_38[0][0]              
__________________________________________________________________________________________________
bn4f_branch2c (BatchNormalizati (None, 11, 11, 1024) 4096        res4f_branch2c[0][0]             
__________________________________________________________________________________________________
add_12 (Add)                    (None, 11, 11, 1024) 0           bn4f_branch2c[0][0]              
                                                                 activation_36[0][0]              
__________________________________________________________________________________________________
activation_39 (Activation)      (None, 11, 11, 1024) 0           add_12[0][0]                     
__________________________________________________________________________________________________
res5a_branch2a (Conv2D)         (None, 6, 6, 512)    524800      activation_39[0][0]              
__________________________________________________________________________________________________
bn5a_branch2a (BatchNormalizati (None, 6, 6, 512)    2048        res5a_branch2a[0][0]             
__________________________________________________________________________________________________
activation_40 (Activation)      (None, 6, 6, 512)    0           bn5a_branch2a[0][0]              
__________________________________________________________________________________________________
res5a_branch2b (Conv2D)         (None, 6, 6, 512)    2359808     activation_40[0][0]              
__________________________________________________________________________________________________
bn5a_branch2b (BatchNormalizati (None, 6, 6, 512)    2048        res5a_branch2b[0][0]             
__________________________________________________________________________________________________
activation_41 (Activation)      (None, 6, 6, 512)    0           bn5a_branch2b[0][0]              
__________________________________________________________________________________________________
res5a_branch2c (Conv2D)         (None, 6, 6, 2048)   1050624     activation_41[0][0]              
__________________________________________________________________________________________________
res5a_branch1 (Conv2D)          (None, 6, 6, 2048)   2099200     activation_39[0][0]              
__________________________________________________________________________________________________
bn5a_branch2c (BatchNormalizati (None, 6, 6, 2048)   8192        res5a_branch2c[0][0]             
__________________________________________________________________________________________________
bn5a_branch1 (BatchNormalizatio (None, 6, 6, 2048)   8192        res5a_branch1[0][0]              
__________________________________________________________________________________________________
add_13 (Add)                    (None, 6, 6, 2048)   0           bn5a_branch2c[0][0]              
                                                                 bn5a_branch1[0][0]               
__________________________________________________________________________________________________
activation_42 (Activation)      (None, 6, 6, 2048)   0           add_13[0][0]                     
__________________________________________________________________________________________________
res5b_branch2a (Conv2D)         (None, 6, 6, 512)    1049088     activation_42[0][0]              
__________________________________________________________________________________________________
bn5b_branch2a (BatchNormalizati (None, 6, 6, 512)    2048        res5b_branch2a[0][0]             
__________________________________________________________________________________________________
activation_43 (Activation)      (None, 6, 6, 512)    0           bn5b_branch2a[0][0]              
__________________________________________________________________________________________________
res5b_branch2b (Conv2D)         (None, 6, 6, 512)    2359808     activation_43[0][0]              
__________________________________________________________________________________________________
bn5b_branch2b (BatchNormalizati (None, 6, 6, 512)    2048        res5b_branch2b[0][0]             
__________________________________________________________________________________________________
activation_44 (Activation)      (None, 6, 6, 512)    0           bn5b_branch2b[0][0]              
__________________________________________________________________________________________________
res5b_branch2c (Conv2D)         (None, 6, 6, 2048)   1050624     activation_44[0][0]              
__________________________________________________________________________________________________
bn5b_branch2c (BatchNormalizati (None, 6, 6, 2048)   8192        res5b_branch2c[0][0]             
__________________________________________________________________________________________________
add_14 (Add)                    (None, 6, 6, 2048)   0           bn5b_branch2c[0][0]              
                                                                 activation_42[0][0]              
__________________________________________________________________________________________________
activation_45 (Activation)      (None, 6, 6, 2048)   0           add_14[0][0]                     
__________________________________________________________________________________________________
res5c_branch2a (Conv2D)         (None, 6, 6, 512)    1049088     activation_45[0][0]              
__________________________________________________________________________________________________
bn5c_branch2a (BatchNormalizati (None, 6, 6, 512)    2048        res5c_branch2a[0][0]             
__________________________________________________________________________________________________
activation_46 (Activation)      (None, 6, 6, 512)    0           bn5c_branch2a[0][0]              
__________________________________________________________________________________________________
res5c_branch2b (Conv2D)         (None, 6, 6, 512)    2359808     activation_46[0][0]              
__________________________________________________________________________________________________
bn5c_branch2b (BatchNormalizati (None, 6, 6, 512)    2048        res5c_branch2b[0][0]             
__________________________________________________________________________________________________
activation_47 (Activation)      (None, 6, 6, 512)    0           bn5c_branch2b[0][0]              
__________________________________________________________________________________________________
res5c_branch2c (Conv2D)         (None, 6, 6, 2048)   1050624     activation_47[0][0]              
__________________________________________________________________________________________________
bn5c_branch2c (BatchNormalizati (None, 6, 6, 2048)   8192        res5c_branch2c[0][0]             
__________________________________________________________________________________________________
add_15 (Add)                    (None, 6, 6, 2048)   0           bn5c_branch2c[0][0]              
                                                                 activation_45[0][0]              
__________________________________________________________________________________________________
activation_48 (Activation)      (None, 6, 6, 2048)   0           add_15[0][0]                     
==================================================================================================
Total params: 23,587,712
Trainable params: 0
Non-trainable params: 23,587,712
__________________________________________________________________________________________________
Model: "sequential"
_________________________________________________________________
Layer (type)                 Output Shape              Param #   
=================================================================
resnet50 (Model)             (None, 6, 6, 2048)        23587712  
_________________________________________________________________
dropout (Dropout)            (None, 6, 6, 2048)        0         
_________________________________________________________________
global_average_pooling2d (Gl (None, 2048)              0         
_________________________________________________________________
dense (Dense)                (None, 101)               206949    
=================================================================
Total params: 23,794,661
Trainable params: 206,949
Non-trainable params: 23,587,712
_________________________________________________________________
      1/Unknown - 47s 47s/step - loss: 276.4256 - acc: 0.0000e+00      2/Unknown - 52s 26s/step - loss: 272.1914
…
