…
79855616/80134624 [============================>.] - ETA: 0s80142336/80134624 [==============================] - 2s 0us/step
Model: "vgg19"
_________________________________________________________________
Layer (type)                 Output Shape              Param #   
=================================================================
input_1 (InputLayer)         [(None, 170, 170, 3)]     0         
_________________________________________________________________
block1_conv1 (Conv2D)        (None, 170, 170, 64)      1792      
_________________________________________________________________
block1_conv2 (Conv2D)        (None, 170, 170, 64)      36928     
_________________________________________________________________
block1_pool (MaxPooling2D)   (None, 85, 85, 64)        0         
_________________________________________________________________
block2_conv1 (Conv2D)        (None, 85, 85, 128)       73856     
_________________________________________________________________
block2_conv2 (Conv2D)        (None, 85, 85, 128)       147584    
_________________________________________________________________
block2_pool (MaxPooling2D)   (None, 42, 42, 128)       0         
_________________________________________________________________
block3_conv1 (Conv2D)        (None, 42, 42, 256)       295168    
_________________________________________________________________
block3_conv2 (Conv2D)        (None, 42, 42, 256)       590080    
_________________________________________________________________
block3_conv3 (Conv2D)        (None, 42, 42, 256)       590080    
_________________________________________________________________
block3_conv4 (Conv2D)        (None, 42, 42, 256)       590080    
_________________________________________________________________
block3_pool (MaxPooling2D)   (None, 21, 21, 256)       0         
_________________________________________________________________
block4_conv1 (Conv2D)        (None, 21, 21, 512)       1180160   
_________________________________________________________________
block4_conv2 (Conv2D)        (None, 21, 21, 512)       2359808   
_________________________________________________________________
block4_conv3 (Conv2D)        (None, 21, 21, 512)       2359808   
_________________________________________________________________
block4_conv4 (Conv2D)        (None, 21, 21, 512)       2359808   
_________________________________________________________________
block4_pool (MaxPooling2D)   (None, 10, 10, 512)       0         
_________________________________________________________________
block5_conv1 (Conv2D)        (None, 10, 10, 512)       2359808   
_________________________________________________________________
block5_conv2 (Conv2D)        (None, 10, 10, 512)       2359808   
_________________________________________________________________
block5_conv3 (Conv2D)        (None, 10, 10, 512)       2359808   
_________________________________________________________________
block5_conv4 (Conv2D)        (None, 10, 10, 512)       2359808   
_________________________________________________________________
block5_pool (MaxPooling2D)   (None, 5, 5, 512)         0         
=================================================================
Total params: 20,024,384
Trainable params: 0
Non-trainable params: 20,024,384
_________________________________________________________________
Model: "sequential"
_________________________________________________________________
Layer (type)                 Output Shape              Param #   
=================================================================
vgg19 (Model)                (None, 5, 5, 512)         20024384  
_________________________________________________________________
dropout (Dropout)            (None, 5, 5, 512)         0         
_________________________________________________________________
global_average_pooling2d (Gl (None, 512)               0         
_________________________________________________________________
dense (Dense)                (None, 101)               51813     
=================================================================
Total params: 20,076,197
Trainable params: 51,813
Non-trainable params: 20,024,384
_________________________________________________________________
      1/Unknown - 8s 8s/step - loss: 246.1577 - acc: 0.0000e+00      2/Unknown - 13s 6s/step - loss: 262.3032 - ac
…
