
# creating late fusion model using local response normalization
Model: "model"
__________________________________________________________________________________________________
Layer (type)                    Output Shape         Param #     Connected to                     
==================================================================================================
start (InputLayer)              [(None, 170, 170, 3) 0                                            
__________________________________________________________________________________________________
end (InputLayer)                [(None, 170, 170, 3) 0                                            
__________________________________________________________________________________________________
conv2d (Conv2D)                 (None, 54, 54, 96)   34944       start[0][0]                      
__________________________________________________________________________________________________
conv2d_5 (Conv2D)               (None, 54, 54, 96)   34944       end[0][0]                        
__________________________________________________________________________________________________
batch_normalization (BatchNorma (None, 54, 54, 96)   384         conv2d[0][0]                     
__________________________________________________________________________________________________
batch_normalization_2 (BatchNor (None, 54, 54, 96)   384         conv2d_5[0][0]                   
__________________________________________________________________________________________________
max_pooling2d (MaxPooling2D)    (None, 27, 27, 96)   0           batch_normalization[0][0]        
__________________________________________________________________________________________________
max_pooling2d_3 (MaxPooling2D)  (None, 27, 27, 96)   0           batch_normalization_2[0][0]      
__________________________________________________________________________________________________
conv2d_1 (Conv2D)               (None, 23, 23, 256)  614656      max_pooling2d[0][0]              
__________________________________________________________________________________________________
conv2d_6 (Conv2D)               (None, 23, 23, 256)  614656      max_pooling2d_3[0][0]            
__________________________________________________________________________________________________
batch_normalization_1 (BatchNor (None, 23, 23, 256)  1024        conv2d_1[0][0]                   
__________________________________________________________________________________________________
batch_normalization_3 (BatchNor (None, 23, 23, 256)  1024        conv2d_6[0][0]                   
__________________________________________________________________________________________________
max_pooling2d_1 (MaxPooling2D)  (None, 11, 11, 256)  0           batch_normalization_1[0][0]      
__________________________________________________________________________________________________
max_pooling2d_4 (MaxPooling2D)  (None, 11, 11, 256)  0           batch_normalization_3[0][0]      
__________________________________________________________________________________________________
conv2d_2 (Conv2D)               (None, 9, 9, 384)    885120      max_pooling2d_1[0][0]            
__________________________________________________________________________________________________
conv2d_7 (Conv2D)               (None, 9, 9, 384)    885120      max_pooling2d_4[0][0]            
__________________________________________________________________________________________________
conv2d_3 (Conv2D)               (None, 7, 7, 384)    1327488     conv2d_2[0][0]                   
__________________________________________________________________________________________________
conv2d_8 (Conv2D)               (None, 7, 7, 384)    1327488     conv2d_7[0][0]                   
__________________________________________________________________________________________________
conv2d_4 (Conv2D)               (None, 5, 5, 256)    884992      conv2d_3[0][0]                   
__________________________________________________________________________________________________
conv2d_9 (Conv2D)               (None, 5, 5, 256)    884992      conv2d_8[0][0]                   
__________________________________________________________________________________________________
max_pooling2d_2 (MaxPooling2D)  (None, 2, 2, 256)    0           conv2d_4[0][0]                   
__________________________________________________________________________________________________
max_pooling2d_5 (MaxPooling2D)  (None, 2, 2, 256)    0           conv2d_9[0][0]                   
__________________________________________________________________________________________________
concatenate (Concatenate)       (None, 2, 2, 512)    0           max_pooling2d_2[0][0]            
                                                                 max_pooling2d_5[0][0]            
__________________________________________________________________________________________________
flatten (Flatten)               (None, 2048)         0           concatenate[0][0]                
__________________________________________________________________________________________________
dense (Dense)                   (None, 4096)         8392704     flatten[0][0]                    
__________________________________________________________________________________________________
dense_1 (Dense)                 (None, 4096)         16781312    dense[0][0]                      
__________________________________________________________________________________________________
dense_2 (Dense)                 (None, 101)          413797      dense_1[0][0]                    
==================================================================================================
Total params: 33,085,029
Trainable params: 33,083,621
Non-trainable params: 1,408
__________________________________________________________________________________________________
Epoch 1/10
      1/Unknown - 37s 37s/step - loss: 4.6831 - acc: 0.0312
…
