
# Evaluating  on test data
<class 'tensorflow_datasets.core.dataset_info.DatasetInfo'>

# creating early fusion model using batch normalization
Model: "sequential"
_________________________________________________________________
Layer (type)                 Output Shape              Param #   
=================================================================
conv3d (Conv3D)              (None, 1, 54, 54, 96)     348576    
_________________________________________________________________
reshape (Reshape)            (None, 54, 54, 96)        0         
_________________________________________________________________
batch_normalization (BatchNo (None, 54, 54, 96)        384       
_________________________________________________________________
max_pooling2d (MaxPooling2D) (None, 27, 27, 96)        0         
_________________________________________________________________
conv2d (Conv2D)              (None, 23, 23, 256)       614656    
_________________________________________________________________
batch_normalization_1 (Batch (None, 23, 23, 256)       1024      
_________________________________________________________________
max_pooling2d_1 (MaxPooling2 (None, 11, 11, 256)       0         
_________________________________________________________________
conv2d_1 (Conv2D)            (None, 9, 9, 384)         885120    
_________________________________________________________________
conv2d_2 (Conv2D)            (None, 7, 7, 384)         1327488   
_________________________________________________________________
conv2d_3 (Conv2D)            (None, 5, 5, 256)         884992    
_________________________________________________________________
max_pooling2d_2 (MaxPooling2 (None, 2, 2, 256)         0         
_________________________________________________________________
flatten (Flatten)            (None, 1024)              0         
_________________________________________________________________
dense (Dense)                (None, 4096)              4198400   
_________________________________________________________________
dense_1 (Dense)              (None, 4096)              16781312  
_________________________________________________________________
dense_2 (Dense)              (None, 101)               413797    
=================================================================
Total params: 25,455,749
Trainable params: 25,455,045
Non-trainable params: 704
_________________________________________________________________
Epoch 1/20
      1/Unknown - 15s 15s/step - loss: 4.6290 - acc: 0.0000e+00      2/Unknown - 22s 11s/step - loss: 4.604
…
