…
conv3d_1 (Conv3D)               (None, 1, 54, 54, 96 139488      clip_2[0][0]                     
__________________________________________________________________________________________________
conv3d_2 (Conv3D)               (None, 1, 54, 54, 96 139488      clip_3[0][0]                     
__________________________________________________________________________________________________
conv3d_3 (Conv3D)               (None, 1, 54, 54, 96 139488      clip_4[0][0]                     
__________________________________________________________________________________________________
reshape (Reshape)               (None, 54, 54, 96)   0           conv3d[0][0]                     
__________________________________________________________________________________________________
reshape_1 (Reshape)             (None, 54, 54, 96)   0           conv3d_1[0][0]                   
__________________________________________________________________________________________________
reshape_2 (Reshape)             (None, 54, 54, 96)   0           conv3d_2[0][0]                   
__________________________________________________________________________________________________
reshape_3 (Reshape)             (None, 54, 54, 96)   0           conv3d_3[0][0]                   
__________________________________________________________________________________________________
batch_normalization (BatchNorma (None, 54, 54, 96)   384         reshape[0][0]                    
__________________________________________________________________________________________________
batch_normalization_1 (BatchNor (None, 54, 54, 96)   384         reshape_1[0][0]                  
__________________________________________________________________________________________________
batch_normalization_2 (BatchNor (None, 54, 54, 96)   384         reshape_2[0][0]                  
__________________________________________________________________________________________________
batch_normalization_3 (BatchNor (None, 54, 54, 96)   384         reshape_3[0][0]                  
__________________________________________________________________________________________________
max_pooling2d (MaxPooling2D)    (None, 27, 27, 96)   0           batch_normalization[0][0]        
__________________________________________________________________________________________________
max_pooling2d_1 (MaxPooling2D)  (None, 27, 27, 96)   0           batch_normalization_1[0][0]      
__________________________________________________________________________________________________
max_pooling2d_2 (MaxPooling2D)  (None, 27, 27, 96)   0           batch_normalization_2[0][0]      
__________________________________________________________________________________________________
max_pooling2d_3 (MaxPooling2D)  (None, 27, 27, 96)   0           batch_normalization_3[0][0]      
__________________________________________________________________________________________________
concatenate (Concatenate)       (None, 27, 27, 192)  0           max_pooling2d[0][0]              
                                                                 max_pooling2d_1[0][0]            
__________________________________________________________________________________________________
concatenate_1 (Concatenate)     (None, 27, 27, 192)  0           max_pooling2d_2[0][0]            
                                                                 max_pooling2d_3[0][0]            
__________________________________________________________________________________________________
conv2d (Conv2D)                 (None, 23, 23, 256)  1229056     concatenate[0][0]                
__________________________________________________________________________________________________
conv2d_1 (Conv2D)               (None, 23, 23, 256)  1229056     concatenate_1[0][0]              
__________________________________________________________________________________________________
batch_normalization_4 (BatchNor (None, 23, 23, 256)  1024        conv2d[0][0]                     
__________________________________________________________________________________________________
batch_normalization_5 (BatchNor (None, 23, 23, 256)  1024        conv2d_1[0][0]                   
__________________________________________________________________________________________________
max_pooling2d_4 (MaxPooling2D)  (None, 11, 11, 256)  0           batch_normalization_4[0][0]      
__________________________________________________________________________________________________
max_pooling2d_5 (MaxPooling2D)  (None, 11, 11, 256)  0           batch_normalization_5[0][0]      
__________________________________________________________________________________________________
concatenate_2 (Concatenate)     (None, 11, 11, 512)  0           max_pooling2d_4[0][0]            
                                                                 max_pooling2d_5[0][0]            
__________________________________________________________________________________________________
conv2d_2 (Conv2D)               (None, 9, 9, 384)    1769856     concatenate_2[0][0]              
__________________________________________________________________________________________________
conv2d_3 (Conv2D)               (None, 7, 7, 384)    1327488     conv2d_2[0][0]                   
__________________________________________________________________________________________________
conv2d_4 (Conv2D)               (None, 5, 5, 256)    884992      conv2d_3[0][0]                   
__________________________________________________________________________________________________
max_pooling2d_6 (MaxPooling2D)  (None, 2, 2, 256)    0           conv2d_4[0][0]                   
__________________________________________________________________________________________________
flatten (Flatten)               (None, 1024)         0           max_pooling2d_6[0][0]            
__________________________________________________________________________________________________
dense (Dense)                   (None, 4096)         4198400     flatten[0][0]                    
__________________________________________________________________________________________________
dense_1 (Dense)                 (None, 4096)         16781312    dense[0][0]                      
__________________________________________________________________________________________________
dense_2 (Dense)                 (None, 101)          413797      dense_1[0][0]                    
==================================================================================================
Total params: 28,395,493
Trainable params: 28,393,701
Non-trainable params: 1,792
__________________________________________________________________________________________________
Epoch 1/10
      1/Unknown - 63s 63s/step - loss: 4.6967 - acc: 0.0000e+00
…
