Model: "vgg19"
_________________________________________________________________
Layer (type)                 Output Shape              Param #   
=================================================================
input_1 (InputLayer)         [(None, 170, 170, 3)]     0         
_________________________________________________________________
block1_conv1 (Conv2D)        (None, 170, 170, 64)      1792      
_________________________________________________________________
block1_conv2 (Conv2D)        (None, 170, 170, 64)      36928     
_________________________________________________________________
block1_pool (MaxPooling2D)   (None, 85, 85, 64)        0         
_________________________________________________________________
block2_conv1 (Conv2D)        (None, 85, 85, 128)       73856     
_________________________________________________________________
block2_conv2 (Conv2D)        (None, 85, 85, 128)       147584    
_________________________________________________________________
block2_pool (MaxPooling2D)   (None, 42, 42, 128)       0         
_________________________________________________________________
block3_conv1 (Conv2D)        (None, 42, 42, 256)       295168    
_________________________________________________________________
block3_conv2 (Conv2D)        (None, 42, 42, 256)       590080    
_________________________________________________________________
block3_conv3 (Conv2D)        (None, 42, 42, 256)       590080    
_________________________________________________________________
block3_conv4 (Conv2D)        (None, 42, 42, 256)       590080    
_________________________________________________________________
block3_pool (MaxPooling2D)   (None, 21, 21, 256)       0         
_________________________________________________________________
block4_conv1 (Conv2D)        (None, 21, 21, 512)       1180160   
_________________________________________________________________
block4_conv2 (Conv2D)        (None, 21, 21, 512)       2359808   
_________________________________________________________________
block4_conv3 (Conv2D)        (None, 21, 21, 512)       2359808   
_________________________________________________________________
block4_conv4 (Conv2D)        (None, 21, 21, 512)       2359808   
_________________________________________________________________
block4_pool (MaxPooling2D)   (None, 10, 10, 512)       0         
_________________________________________________________________
block5_conv1 (Conv2D)        (None, 10, 10, 512)       2359808   
_________________________________________________________________
block5_conv2 (Conv2D)        (None, 10, 10, 512)       2359808   
_________________________________________________________________
block5_conv3 (Conv2D)        (None, 10, 10, 512)       2359808   
_________________________________________________________________
block5_conv4 (Conv2D)        (None, 10, 10, 512)       2359808   
_________________________________________________________________
block5_pool (MaxPooling2D)   (None, 5, 5, 512)         0         
=================================================================
Total params: 20,024,384
Trainable params: 0
Non-trainable params: 20,024,384
_________________________________________________________________

# creating late fusion model using vgg pretrained model
Model: "model"
__________________________________________________________________________________________________
Layer (type)                    Output Shape         Param #     Connected to                     
==================================================================================================
start (InputLayer)              [(None, 170, 170, 3) 0                                            
__________________________________________________________________________________________________
end (InputLayer)                [(None, 170, 170, 3) 0                                            
__________________________________________________________________________________________________
vgg19 (Model)                   (None, 5, 5, 512)    20024384    start[0][0]                      
                                                                 end[0][0]                        
__________________________________________________________________________________________________
dropout (Dropout)               (None, 5, 5, 512)    0           vgg19[1][0]                      
__________________________________________________________________________________________________
dropout_1 (Dropout)             (None, 5, 5, 512)    0           vgg19[2][0]                      
__________________________________________________________________________________________________
concatenate (Concatenate)       (None, 5, 5, 1024)   0           dropout[0][0]                    
                                                                 dropout_1[0][0]                  
__________________________________________________________________________________________________
global_average_pooling2d (Globa (None, 1024)         0           concatenate[0][0]                
__________________________________________________________________________________________________
dense (Dense)                   (None, 101)          103525      global_average_pooling2d[0][0]   
==================================================================================================
Total params: 20,127,909
Trainable params: 103,525
Non-trainable params: 20,024,384
__________________________________________________________________________________________________
Epoch 1/3
      1/Unknown - 43s 43s/step - loss: 4.8965 - acc: 0.0000e+00
…
