
# Evaluating  on test data
<class 'tensorflow_datasets.core.dataset_info.DatasetInfo'>

# creating single from model using Local response normalization
Model: "sequential"
_________________________________________________________________
Layer (type)                 Output Shape              Param #   
=================================================================
conv2d (Conv2D)              (None, 54, 54, 96)        34944     
_________________________________________________________________
my_lrn_layer (MyLRNLayer)    (None, 54, 54, 96)        1         
_________________________________________________________________
max_pooling2d (MaxPooling2D) (None, 27, 27, 96)        0         
_________________________________________________________________
conv2d_1 (Conv2D)            (None, 23, 23, 256)       614656    
_________________________________________________________________
my_lrn_layer_1 (MyLRNLayer)  (None, 23, 23, 256)       1         
_________________________________________________________________
max_pooling2d_1 (MaxPooling2 (None, 11, 11, 256)       0         
_________________________________________________________________
conv2d_2 (Conv2D)            (None, 9, 9, 384)         885120    
_________________________________________________________________
conv2d_3 (Conv2D)            (None, 7, 7, 256)         884992    
_________________________________________________________________
max_pooling2d_2 (MaxPooling2 (None, 3, 3, 256)         0         
_________________________________________________________________
flatten (Flatten)            (None, 2304)              0         
_________________________________________________________________
dense (Dense)                (None, 4096)              9441280   
_________________________________________________________________
dense_1 (Dense)              (None, 4096)              16781312  
_________________________________________________________________
dense_2 (Dense)              (None, 101)               413797    
=================================================================
Total params: 29,056,103
Trainable params: 29,056,101
Non-trainable params: 2
_________________________________________________________________
Epoch 1/10
      1/Unknown - 14s 14s/step - loss: 4.6157 - acc: 0.0000e+00      2/Unknown - 21s 11s/step - loss: 4.6171 
…
